milestone_project/abc.pt (torch, 2119 bytes, 3 tensors)

input.weight f4 [40, 2]
0	0x3e170e6c	0.14751595
1	0x3e06a0b3	0.1314724
2	0xbe7a4b9e	-0.24442908
3	0x3d8908ad	0.06691108
4	0x3e71141e	0.2354283
5	0x3f4aafda	0.7917458
6	0xbcfdb73e	-0.030971166
7	0xbdee2011	-0.1162721
8	0x3dcedf87	0.10101228
9	0x3dd46944	0.1037164
10	0xbeba7e22	-0.36424357
11	0xbf478a42	-0.7794534
12	0xbe91dbb3	-0.2848793
13	0x3f05bdfb	0.5224301
14	0x3ed04865	0.40680233
15	0xbf4af4ed	-0.7927998
16	0xbe83baef	-0.25728557
17	0x3e24233e	0.16029069
18	0x3dc8c400	0.09803009
19	0xbeab6801	-0.33477786
20	0xbf45414b	-0.77052754
21	0xbee25744	-0.44207203
22	0xbc0943a9	-0.008377948
23	0x3f3be00e	0.73388755
24	0x3e956609	0.2917941
25	0x3f3ac1fb	0.7295224
26	0xbe88ab1c	-0.26693046
27	0x3edb2fbf	0.42809865
28	0xbd28e5b3	-0.041234683
29	0x3efa761b	0.48918232
30	0x3f208ce5	0.6271499
31	0x3e83b321	0.25722602
32	0x3f0a7e88	0.5409932
33	0x3ec86558	0.3913982
34	0x3e6967cf	0.22793506
35	0x3eb6e86e	0.35724205
36	0x3f0fc964	0.5616667
37	0x3efdef14	0.49596465
38	0x3e29064a	0.16506305
39	0x3da9ddfb	0.082942925
40	0xbf2e50ab	-0.6809184
41	0xbf18dff7	-0.59716743
42	0xbe8d9d85	-0.2765924
43	0xbf27e18d	-0.6557854
44	0xbec98cdb	-0.39365277
45	0xbc8135b0	-0.01577267
46	0xbdad72d8	-0.0846917
47	0x3f3b97ac	0.7327831
48	0xbca1454f	-0.01968637
49	0x3f0a3dcd	0.5400055
50	0x3f48e471	0.78473574
51	0x3f010f66	0.5041412
52	0x3ea043a3	0.31301603
53	0x3ea56674	0.32304728
54	0x3f478fff	0.77954096
55	0xbd7cca18	-0.06171617
56	0x3e792ca4	0.24333435
57	0xbf052af1	-0.5201865
58	0xbe24ef45	-0.16106899
59	0x3f160541	0.58601767
60	0xbecdb7d3	-0.4017931
61	0xbf2af86f	-0.6678533
62	0xbcde32be	-0.027123805
63	0xbf4a2540	-0.7896309
64	0x3f110fe1	0.56664854
65	0xbe7201ca	-0.23633495
66	0xbce57aef	-0.02801272
67	0x3e8f0932	0.27936703
68	0x3e5b4cc1	0.21415998
69	0xbec1f39a	-0.37881166
70	0x3e35aee1	0.17742492
71	0xbf04925f	-0.51785845
72	0x3d9d06fa	0.07667346
73	0x3ea8d45a	0.3297451
74	0xbed4619b	-0.41480717
75	0xbe02822d	-0.1274497
76	0xbf23a3e4	-0.6392195
77	0x3e8213f4	0.25405848
78	0x3f3585a2	0.7090703
79	0x3cb2b6ec	0.02181574

input.bias f4 [40]
0	0xbec4da97	-0.3844802
1	0x3e60424d	0.21900292
2	0x3f4a2534	0.7896302
3	0xbeef1b52	-0.4670053
4	0xbf068063	-0.5253965
5	0x3c9ea265	0.019364545
6	0xbf2e51e7	-0.68093723
7	0x3d9aeba7	0.07564478
8	0xbe3af450	-0.1825726
9	0x3f0eb0d1	0.5573855
10	0x3f1dc6dd	0.61631566
11	0x3ede8d5f	0.43467233
12	0xbf0c2c33	-0.5475494
13	0xbf40f41d	-0.7537249
14	0xbe8aeefc	-0.27135456
15	0x3e7238c9	0.23654474
16	0x3efad1b6	0.48988122
17	0x3e7fdcb3	0.24986534
18	0xbf2dcff8	-0.6789546
19	0x3eb5874b	0.35454783
20	0x3f39a47d	0.72516614
21	0x3e683140	0.22675037
22	0xbf009460	-0.502264
23	0x3dee5433	0.116371535
24	0xbed92e16	-0.42417973
25	0x3da7448b	0.081673704
26	0x3e92bc2c	0.2865919
27	0xbe739a96	-0.23789439
28	0xbf0e2888	-0.55530596
29	0x3e132c8a	0.14372459
30	0xbed79239	-0.42103747
31	0xbe695e80	-0.22789955
32	0xbdfae0f2	-0.12249936
33	0xbdecf614	-0.11570373
34	0xbe1fc9c2	-0.15604308
35	0x3f105b38	0.5638919
36	0xbf01f01b	-0.50756997
37	0xbeda6f30	-0.42662954
38	0x3ef19fe3	0.47192296
39	0x3e8a3b12	0.26998192

output.weight f4 [1, 40]
0	0x3dbb5772	0.09147538
1	0xbe4c13df	-0.19929455
2	0x3e6f164a	0.23348346
3	0xbca9bc70	-0.020719737
4	0x3c28f1be	0.010311542
5	0xbe955bac	-0.29171503
6	0xbd70034b	-0.05859689
7	0xbe019064	-0.12652737
8	0xbc6bf696	-0.014402052
9	0x3c89ecd0	0.016836554
10	0xbe5cc1ce	-0.21558306
11	0x3e81ff6a	0.25390178
12	0x3e0ba3c2	0.13636687
13	0xbd46548e	-0.04842048
14	0x3d079a58	0.033106178
15	0x3e37cf3b	0.17950146
16	0x3e675523	0.22591071
17	0x3e6bd255	0.23029454
18	0xba1fffad	-0.00061034673
19	0x3c112abe	0.008860288
20	0xbe98823e	-0.29786867
21	0xbe0b88f3	-0.1362646
22	0xbeb5054c	-0.35355604
23	0x3dce7596	0.100810215
24	0x3e606927	0.21915112
25	0x3e56994a	0.20956913
26	0x3df83c76	0.12120907
27	0x3e10e07a	0.14148131
28	0x3cd1b871	0.025600644
29	0xbc4fa890	-0.012674466
30	0xbe6cb654	-0.23116428
31	0xbe26cd72	-0.16289309
32	0x3e4aefee	0.19818088
33	0x3d236488	0.039890796
34	0x3d01c706	0.031683944
35	0xbe25bd6f	-0.16185544
36	0xbc73dd04	-0.014884237
37	0xbe3b9171	-0.183172
38	0xbe660901	-0.22464372
39	0x3e72ad70	0.23698974
